…
,"data":{"text/plain":"model.safetensors:   0%|          | 0.00/75.8M [00:00<?, ?B/s]","application/vnd.jupyter.widget-view+json":{"version_major":2,"version_minor":0,"model_id":"ba4c7404e4244cfabc1533b4fff6e33f"}},"metadata":{}},{"execution_count":19,"output_type":"execute_result","data":{"text/plain":"PatchTSTForPretraining(\n  (model): PatchTSTModel(\n    (scaler): PatchTSTScaler(\n      (scaler): PatchTSTMeanScaler()\n    )\n    (patchifier): PatchTSTPatchify()\n    (masking): PatchTSTMasking()\n    (encoder): PatchTSTEncoder(\n      (embedder): PatchTSTEmbedding(\n        (input_embedding): Linear(in_features=12, out_features=512, bias=True)\n      )\n      (positional_encoder): PatchTSTPositionalEncoding(\n        (positional_dropout): Identity()\n      )\n      (layers): ModuleList(\n        (0-5): 6 x PatchTSTEncoderLayer(\n          (self_attn): PatchTSTAttention(\n            (k_proj): Linear(in_features=512, out_features=512, bias=True)\n            (v_proj): Linear(in_features=512, out_features=512, bias=True)\n            (q_proj): Linear(in_features=512, out_features=512, bias=True)\n            (out_proj): Linear(in_features=512, out_features=512, bias=True)\n          )\n          (dropout_path1): Identity()\n          (norm_sublayer1): LayerNorm((512,), eps=1e-05, elementwise_affine=True)\n          (dropout_path2): Identity()\n          (norm_sublayer2): LayerNorm((512,), eps=1e-05, elementwise_affine=True)\n          (ff): Sequential(\n            (0): Linear(in_features=512, out_features=2048, bias=True)\n            (1): GELUActivation()\n            (2): Identity()\n            (3): Linear(in_features=2048, out_features=512, bias=True)\n          )\n          (dropout_path3): Identity()\n          (norm_sublayer3): LayerNorm((512,), eps=1e-05, elementwise_affine=True)\n        )\n      )\n    )\n  )\n  (head): PatchTSTMaskPretrainHead(\n    (dropout): Dropout(p=0.1, inplace=False)\n    (linear): Linear(in_features=512, out_features=12, bias=True)\n  )\n)"},"metadata":{}}],"execution_count":19},{"cell_type":"code","source":"train_embeddings, train_ids = extract_embeddings_from_dataloader(model, train_loader)\ntest_embeddings, test_ids = extract_embeddings_from_dataloader(model, test_loader)\n","metadata":{"id":"3JCxCw5jypNd","trusted":true,"execution":{"iopub.status.busy":"2025-07-01T21:36:42.209
…
